…
            torch.nn.Linear(384, 128),
            torch.nn.CELU(0.1),
            torch.nn.Linear(128, 128),
            torch.nn.CELU(0.1),
            torch.nn.Linear(128, 64),
            torch.nn.CELU(0.1),
            torch.nn.Linear(64, 1)
        )
        return model


    nn = torchani.ANIModel([atomic() for _ in range(4)])
    print(nn)

    if os.path.isfile(model_checkpoint):
        nn.load_state_dict(torch.load(model_checkpoint))
    else:
        torch.save(nn.state_dict(), model_checkpoint)






.. rst-class:: sphx-glr-script-out

 Out:

 .. code-block:: none

    ANIModel(
      (0): Sequential(
        (0): Linear(in_features=384, out_features=128, bias=True)
        (1): CELU(alpha=0.1)
        (2): Linear(in_features=128, out_features=128, bias=True)
        (3): CELU(alpha=0.1)
        (4): Linear(in_features=128, out_features=64, bias=True)
        (5): CELU(alpha=0.1)
        (6): Linear(in_features=64, out_features=1, bias=True)
      )
      (1): Sequential(
        (0): Linear(in_features=384, out_features=128, bias=True)
        (1): CELU(alpha=0.1)
        (2): Linear(in_features=128, out_features=128, bias=True)
        (3): CELU(alpha=0.1)
        (4): Linear(in_features=128, out_features=64, bias=True)
        (5): CELU(alpha=0.1)
        (6): Linear(in_features=64, out_features=1, bias=True)
      )
      (2): Sequential(
        (0): Linear(in_features=384, out_features=128, bias=True)
        (1): CELU(alpha=0.1)
        (2): Linear(in_features=128, out_features=128, bias=True)
        (3): CELU(alpha=0.1)
        (4): Linear(in_features=128, out_features=64, bias=True)
        (5): CELU(alpha=0.1)
        (6): Linear(in_features=64, out_features=1, bias=True)
      )
      (3): Sequential(
        (0): Linear(in_features=384, out_features=128, bias=True)
        (1): CELU(alpha=0.1)
        (2): Linear(in_features=128, out_features=128, bias=True)
        (3): CELU(alpha=0.1)
        (4): Linear(in_features=128, out_features=64, bias=True)
        (5): CELU(alpha=0.1)
        (6): Linear(in_features=64, out_features=1, bias=True)
      )
    )


Except that at here we do not include aev computer into our pipeline, because
the cache loader will load computed AEVs from disk.


.. code-block:: default

    model = nn.to(device)







This part is also a line by line copy


.. code-block:: default

    writer = tensorboardX.SummaryWriter(log_dir=log)







Here we don't need to construct :class:`torchani.data.BatchedANIDataset`
…
