…
You can create the pipeline of computing energies:
(Coordinates) -[AEVComputer]-> (AEV) -[Neural Network]->
(Raw energies) -[EnergyShifter]-> (Final energies)
From using either the ensemble or a single model:


.. code-block:: default

    nnp1 = torch.nn.Sequential(aev_computer, ensemble, energy_shifter)
    nnp2 = torch.nn.Sequential(aev_computer, model, energy_shifter)
    print(nnp1)
    print(nnp2)





.. rst-class:: sphx-glr-script-out

 Out:

 .. code-block:: none

    Sequential(
      (0): AEVComputer()
      (1): Ensemble(
        (0): ANIModel(
          (0): Sequential(
            (0): Linear(in_features=384, out_features=160, bias=True)
            (1): CELU(alpha=0.1)
            (2): Linear(in_features=160, out_features=128, bias=True)
            (3): CELU(alpha=0.1)
            (4): Linear(in_features=128, out_features=96, bias=True)
            (5): CELU(alpha=0.1)
            (6): Linear(in_features=96, out_features=1, bias=True)
          )
          (1): Sequential(
            (0): Linear(in_features=384, out_features=144, bias=True)
            (1): CELU(alpha=0.1)
            (2): Linear(in_features=144, out_features=112, bias=True)
            (3): CELU(alpha=0.1)
            (4): Linear(in_features=112, out_features=96, bias=True)
            (5): CELU(alpha=0.1)
            (6): Linear(in_features=96, out_features=1, bias=True)
          )
          (2): Sequential(
            (0): Linear(in_features=384, out_features=128, bias=True)
            (1): CELU(alpha=0.1)
            (2): Linear(in_features=128, out_features=112, bias=True)
            (3): CELU(alpha=0.1)
            (4): Linear(in_features=112, out_features=96, bias=True)
            (5): CELU(alpha=0.1)
            (6): Linear(in_features=96, out_features=1, bias=True)
          )
          (3): Sequential(
            (0): Linear(in_features=384, out_features=128, bias=True)
            (1): CELU(alpha=0.1)
            (2): Linear(in_features=128, out_features=112, bias=True)
            (3): CELU(alpha=0.1)
            (4): Linear(in_features=112, out_features=96, bias=True)
            (5): CELU(alpha=0.1)
            (6): Linear(in_features=96, out_features=1, bias=True)
          )
        )
        (1): ANIModel(
          (0): Sequential(
            (0): Linear(in_features=384, out_features=160, bias=True)
            (1): CELU(alpha=0.1)
            (2): Linear(in_features=160, out_features=128, bias=True)
            (3): CELU(alpha=0.1)
            (4): Linear(in_features=128, out_features=96, bias=True)
            (5): CELU(alpha=0.1)
            (6): Linear(in_features=96, out_features=1, bias=True)
          )
          (1): Sequential(
            (0): Linear(in_features=384, out_features=144, bias=True)
            (1): CELU(alpha=0.1)
            (2): Linear(in_features=144, out_features=112, bias=True)
            (3): CELU(alpha=0.1)
            (4): Linear(in_features=112, out_features=96, bias=True)
            (5): CELU(alpha=0.1)
            (6): Linear(in_features=96, out_features=1, bias=True)
          )
          (2): Sequential(
            (0): Linear(in_features=384, out_features=128, bias=True)
            (1): CELU(alpha=0.1)
            (2): Linear(in_features=128, out_features=112, bias=True)
            (3): CELU(alpha=0.1)
            (4): Linear(in_features=112, out_features=96, bias=True)
            (5): CELU(alpha=0.1)
            (6): Linear(in_features=96, out_features=1, bias=True)
          )
          (3): Sequential(
            (0): Linear(in_features=384, out_features=128, bias=True)
            (1): CELU(alpha=0.1)
            (2): Linear(in_features=128, out_features=112, bias=True)
            (3): CELU(alpha=0.1)
            (4): Linear(in_features=112, out_features=96, bias=True)
            (5): CELU(alpha=0.1)
            (6): Linear(in_features=96, out_features=1, bias=True)
          )
        )
        (2): ANIModel(
          (0): Sequential(
            (0): Linear(in_features=384, out_features=160, bias=True)
            (1): CELU(alpha=0.1)
            (2): Linear(in_features=160, out_features=128, bias=True)
            (3): CELU(alpha=0.1)
            (4): Linear(in_features=128, out_features=96, bias=True)
            (5): CELU(alpha=0.1)
            (6): Linear(in_features=96, out_features=1, bias=True)
          )
          (1): Sequential(
            (0): Linear(in_features=384, out_features=144, bias=True)
            (1): CELU(alpha=0.1)
            (2): Linear(in_features=144, out_features=112, bias=True)
            (3): CELU(alpha=0.1)
            (4): Linear(in_features=112, out_features=96, bias=True)
            (5): CELU(alpha=0.1)
            (6): Linear(in_features=96, out_features=1, bias=True)
          )
          (2): Sequential(
            (0): Linear(in_features=384, out_features=128, bias=True)
            (1): CELU(alpha=0.1)
            (2): Linear(in_features=128, out_features=112, bias=True)
            (3): CELU(alpha=0.1)
            (4): Linear(in_features=112, out_features=96, bias=True)
            (5): CELU(alpha=0.1)
            (6): Linear(in_features=96, out_features=1, bias=True)
          )
          (3): Sequential(
            (0): Linear(in_features=384, out_features=128, bias=True)
            (1): CELU(alpha=0.1)
            (2): Linear(in_features=128, out_features=112, bias=True)
            (3): CELU(alpha=0.1)
            (4): Linear(in_features=112, out_features=96, bias=True)
            (5): CELU(alpha=0.1)
            (6): Linear(in_features=96, out_features=1, bias=True)
          )
        )
        (3): ANIModel(
          (0): Sequential(
            (0): Linear(in_features=384, out_features=160, bias=True)
            (1): CELU(alpha=0.1)
            (2): Linear(in_features=160, out_features=128, bias=True)
            (3): CELU(alpha=0.1)
            (4): Linear(in_features=128, out_features=96, bias=True)
            (5): CELU(alpha=0.1)
            (6): Linear(in_features=96, out_features=1, bias=True)
          )
          (1): Sequential(
            (0): Linear(in_features=384, out_features=144, bias=True)
            (1): CELU(alpha=0.1)
            (2): Linear(in_features=144, out_features=112, bias=True)
            (3): CELU(alpha=0.1)
            (4): Linear(in_features=112, out_features=96, bias=True)
            (5): CELU(alpha=0.1)
            (6): Linear(in_features=96, out_features=1, bias=True)
          )
          (2): Sequential(
            (0): Linear(in_features=384, out_features=128, bias=True)
            (1): CELU(alpha=0.1)
            (2): Linear(in_features=128, out_features=112, bias=True)
            (3): CELU(alpha=0.1)
            (4): Linear(in_features=112, out_features=96, bias=True)
            (5): CELU(alpha=0.1)
            (6): Linear(in_features=96, out_features=1, bias=True)
          )
          (3): Sequential(
            (0): Linear(in_features=384, out_features=128, bias=True)
            (1): CELU(alpha=0.1)
            (2): Linear(in_features=128, out_features=112, bias=True)
            (3): CELU(alpha=0.1)
            (4): Linear(in_features=112, out_features=96, bias=True)
            (5): CELU(alpha=0.1)
            (6): Linear(in_features=96, out_features=1, bias=True)
          )
        )
        (4): ANIModel(
          (0): Sequential(
            (0): Linear(in_features=384, out_features=160, bias=True)
            (1): CELU(alpha=0.1)
            (2): Linear(in_features=160, out_features=128, bias=True)
            (3): CELU(alpha=0.1)
            (4): Linear(in_features=128, out_features=96, bias=True)
            (5): CELU(alpha=0.1)
            (6): Linear(in_features=96, out_features=1, bias=True)
          )
          (1): Sequential(
            (0): Linear(in_features=384, out_features=144, bias=True)
            (1): CELU(alpha=0.1)
            (2): Linear(in_features=144, out_features=112, bias=True)
            (3): CELU(alpha=0.1)
            (4): Linear(in_features=112, out_features=96, bias=True)
            (5): CELU(alpha=0.1)
            (6): Linear(in_features=96, out_features=1, bias=True)
          )
          (2): Sequential(
            (0): Linear(in_features=384, out_features=128, bias=True)
            (1): CELU(alpha=0.1)
            (2): Linear(in_features=128, out_features=112, bias=True)
            (3): CELU(alpha=0.1)
            (4): Linear(in_features=112, out_features=96, bias=True)
            (5): CELU(alpha=0.1)
            (6): Linear(in_features=96, out_features=1, bias=True)
          )
          (3): Sequential(
            (0): Linear(in_features=384, out_features=128, bias=True)
            (1): CELU(alpha=0.1)
            (2): Linear(in_features=128, out_features=112, bias=True)
            (3): CELU(alpha=0.1)
            (4): Linear(in_features=112, out_features=96, bias=True)
            (5): CELU(alpha=0.1)
            (6): Linear(in_features=96, out_features=1, bias=True)
          )
        )
        (5): ANIModel(
          (0): Sequential(
            (0): Linear(in_features=384, out_features=160, bias=True)
            (1): CELU(alpha=0.1)
            (2): Linear(in_features=160, out_features=128, bias=True)
            (3): CELU(alpha=0.1)
            (4): Linear(in_features=128, out_features=96, bias=True)
            (5): CELU(alpha=0.1)
            (6): Linear(in_features=96, out_features=1, bias=True)
          )
          (1): Sequential(
            (0): Linear(in_features=384, out_features=144, bias=True)
            (1): CELU(alpha=0.1)
            (2): Linear(in_features=144, out_features=112, bias=True)
            (3): CELU(alpha=0.1)
            (4): Linear(in_features=112, out_features=96, bias=True)
            (5): CELU(alpha=0.1)
            (6): Linear(in_features=96, out_features=1, bias=True)
          )
          (2): Sequential(
            (0): Linear(in_features=384, out_features=128, bias=True)
            (1): CELU(alpha=0.1)
            (2): Linear(in_features=128, out_features=112, bias=True)
            (3): CELU(alpha=0.1)
            (4): Linear(in_features=112, out_features=96, bias=True)
            (5): CELU(alpha=0.1)
            (6): Linear(in_features=96, out_features=1, bias=True)
          )
          (3): Sequential(
            (0): Linear(in_features=384, out_features=128, bias=True)
            (1): CELU(alpha=0.1)
            (2): Linear(in_features=128, out_features=112, bias=True)
            (3): CELU(alpha=0.1)
            (4): Linear(in_features=112, out_features=96, bias=True)
            (5): CELU(alpha=0.1)
            (6): Linear(in_features=96, out_features=1, bias=True)
          )
        )
        (6): ANIModel(
          (0): Sequential(
            (0): Linear(in_features=384, out_features=160, bias=True)
            (1): CELU(alpha=0.1)
            (2): Linear(in_features=160, out_features=128, bias=True)
            (3): CELU(alpha=0.1)
            (4): Linear(in_features=128, out_features=96, bias=True)
            (5): CELU(alpha=0.1)
            (6): Linear(in_features=96, out_features=1, bias=True)
          )
          (1): Sequential(
            (0): Linear(in_features=384, out_features=144, bias=True)
            (1): CELU(alpha=0.1)
            (2): Linear(in_features=144, out_features=112, bias=True)
            (3): CELU(alpha=0.1)
            (4): Linear(in_features=112, out_features=96, bias=True)
            (5): CELU(alpha=0.1)
            (6): Linear(in_features=96, out_features=1, bias=True)
          )
          (2): Sequential(
            (0): Linear(in_features=384, out_features=128, bias=True)
            (1): CELU(alpha=0.1)
            (2): Linear(in_features=128, out_features=112, bias=True)
            (3): CELU(alpha=0.1)
            (4): Linear(in_features=112, out_features=96, bias=True)
            (5): CELU(alpha=0.1)
            (6): Linear(in_features=96, out_features=1, bias=True)
          )
          (3): Sequential(
            (0): Linear(in_features=384, out_features=128, bias=True)
            (1): CELU(alpha=0.1)
            (2): Linear(in_features=128, out_features=112, bias=True)
            (3): CELU(alpha=0.1)
            (4): Linear(in_features=112, out_features=96, bias=True)
            (5): CELU(alpha=0.1)
            (6): Linear(in_features=96, out_features=1, bias=True)
          )
        )
        (7): ANIModel(
          (0): Sequential(
            (0): Linear(in_features=384, out_features=160, bias=True)
            (1): CELU(alpha=0.1)
            (2): Linear(in_features=160, out_features=128, bias=True)
            (3): CELU(alpha=0.1)
            (4): Linear(in_features=128, out_features=96, bias=True)
            (5): CELU(alpha=0.1)
            (6): Linear(in_features=96, out_features=1, bias=True)
          )
          (1): Sequential(
            (0): Linear(in_features=384, out_features=144, bias=True)
            (1): CELU(alpha=0.1)
            (2): Linear(in_features=144, out_features=112, bias=True)
            (3): CELU(alpha=0.1)
            (4): Linear(in_features=112, out_features=96, bias=True)
            (5): CELU(alpha=0.1)
            (6): Linear(in_features=96, out_features=1, bias=True)
          )
          (2): Sequential(
            (0): Linear(in_features=384, out_features=128, bias=True)
            (1): CELU(alpha=0.1)
            (2): Linear(in_features=128, out_features=112, bias=True)
            (3): CELU(alpha=0.1)
            (4): Linear(in_features=112, out_features=96, bias=True)
            (5): CELU(alpha=0.1)
            (6): Linear(in_features=96, out_features=1, bias=True)
          )
          (3): Sequential(
            (0): Linear(in_features=384, out_features=128, bias=True)
            (1): CELU(alpha=0.1)
            (2): Linear(in_features=128, out_features=112, bias=True)
            (3): CELU(alpha=0.1)
            (4): Linear(in_features=112, out_features=96, bias=True)
            (5): CELU(alpha=0.1)
            (6): Linear(in_features=96, out_features=1, bias=True)
          )
        )
      )
      (2): EnergyShifter()
    )
    Sequential(
      (0): AEVComputer()
      (1): ANIModel(
        (0): Sequential(
          (0): Linear(in_features=384, out_features=160, bias=True)
          (1): CELU(alpha=0.1)
          (2): Linear(in_features=160, out_features=128, bias=True)
          (3): CELU(alpha=0.1)
          (4): Linear(in_features=128, out_features=96, bias=True)
          (5): CELU(alpha=0.1)
          (6): Linear(in_features=96, out_features=1, bias=True)
        )
        (1): Sequential(
          (0): Linear(in_features=384, out_features=144, bias=True)
          (1): CELU(alpha=0.1)
          (2): Linear(in_features=144, out_features=112, bias=True)
          (3): CELU(alpha=0.1)
          (4): Linear(in_features=112, out_features=96, bias=True)
          (5): CELU(alpha=0.1)
          (6): Linear(in_features=96, out_features=1, bias=True)
        )
        (2): Sequential(
          (0): Linear(in_features=384, out_features=128, bias=True)
          (1): CELU(alpha=0.1)
          (2): Linear(in_features=128, out_features=112, bias=True)
          (3): CELU(alpha=0.1)
          (4): Linear(in_features=112, out_features=96, bias=True)
          (5): CELU(alpha=0.1)
          (6): Linear(in_features=96, out_features=1, bias=True)
        )
        (3): Sequential(
          (0): Linear(in_features=384, out_features=128, bias=True)
          (1): CELU(alpha=0.1)
          (2): Linear(in_features=128, out_features=112, bias=True)
          (3): CELU(alpha=0.1)
          (4): Linear(in_features=112, out_features=96, bias=True)
          (5): CELU(alpha=0.1)
          (6): Linear(in_features=96, out_features=1, bias=True)
        )
      )
      (2): EnergyShifter()
    )


You can also create an ASE calculator using the ensemble or single model:


.. code-block:: default

    calculator1 = torchani.ase.Calculator(consts.species, aev_computer,
                                          ensemble, energy_shifter)
    calculator2 = torchani.ase.Calculator(consts.species, aev_computer,
…
