…
        torch.nn.Linear(128, 112),
        torch.nn.CELU(0.1),
        torch.nn.Linear(112, 96),
        torch.nn.CELU(0.1),
        torch.nn.Linear(96, 1)
    )

    O_network = torch.nn.Sequential(
        torch.nn.Linear(384, 128),
        torch.nn.CELU(0.1),
        torch.nn.Linear(128, 112),
        torch.nn.CELU(0.1),
        torch.nn.Linear(112, 96),
        torch.nn.CELU(0.1),
        torch.nn.Linear(96, 1)
    )

    nn = torchani.ANIModel([H_network, C_network, N_network, O_network])
    print(nn)





.. rst-class:: sphx-glr-script-out

 Out:

 .. code-block:: none

    ANIModel(
      (0): Sequential(
        (0): Linear(in_features=384, out_features=160, bias=True)
        (1): CELU(alpha=0.1)
        (2): Linear(in_features=160, out_features=128, bias=True)
        (3): CELU(alpha=0.1)
        (4): Linear(in_features=128, out_features=96, bias=True)
        (5): CELU(alpha=0.1)
        (6): Linear(in_features=96, out_features=1, bias=True)
      )
      (1): Sequential(
        (0): Linear(in_features=384, out_features=144, bias=True)
        (1): CELU(alpha=0.1)
        (2): Linear(in_features=144, out_features=112, bias=True)
        (3): CELU(alpha=0.1)
        (4): Linear(in_features=112, out_features=96, bias=True)
        (5): CELU(alpha=0.1)
        (6): Linear(in_features=96, out_features=1, bias=True)
      )
      (2): Sequential(
        (0): Linear(in_features=384, out_features=128, bias=True)
        (1): CELU(alpha=0.1)
        (2): Linear(in_features=128, out_features=112, bias=True)
        (3): CELU(alpha=0.1)
        (4): Linear(in_features=112, out_features=96, bias=True)
        (5): CELU(alpha=0.1)
        (6): Linear(in_features=96, out_features=1, bias=True)
      )
      (3): Sequential(
        (0): Linear(in_features=384, out_features=128, bias=True)
        (1): CELU(alpha=0.1)
        (2): Linear(in_features=128, out_features=112, bias=True)
        (3): CELU(alpha=0.1)
        (4): Linear(in_features=112, out_features=96, bias=True)
        (5): CELU(alpha=0.1)
        (6): Linear(in_features=96, out_features=1, bias=True)
      )
    )



Initialize the weights and biases.

.. note::
  Pytorch default initialization for the weights and biases in linear layers
  is Kaiming uniform. See: `TORCH.NN.MODULES.LINEAR`_
  We initialize the weights similarly but from the normal distribution.
  The biases were initialized to zero.

.. _TORCH.NN.MODULES.LINEAR:
  https://pytorch.org/docs/stable/_modules/torch/nn/modules/linear.html#Linear
…
