…
        torch.nn.Linear(128, 112),
        torch.nn.CELU(0.1),
        torch.nn.Linear(112, 96),
        torch.nn.CELU(0.1),
        torch.nn.Linear(96, 1)
    )

    O_network = torch.nn.Sequential(
        torch.nn.Linear(aev_dim, 128),
        torch.nn.CELU(0.1),
        torch.nn.Linear(128, 112),
        torch.nn.CELU(0.1),
        torch.nn.Linear(112, 96),
        torch.nn.CELU(0.1),
        torch.nn.Linear(96, 1)
    )

    nn = torchani.ANIModel([H_network, C_network, N_network, O_network])
    print(nn)





.. rst-class:: sphx-glr-script-out

 .. code-block:: none

    ANIModel(
      (0): Sequential(
        (0): Linear(in_features=384, out_features=160, bias=True)
        (1): CELU(alpha=0.1)
        (2): Linear(in_features=160, out_features=128, bias=True)
        (3): CELU(alpha=0.1)
        (4): Linear(in_features=128, out_features=96, bias=True)
        (5): CELU(alpha=0.1)
        (6): Linear(in_features=96, out_features=1, bias=True)
      )
      (1): Sequential(
        (0): Linear(in_features=384, out_features=144, bias=True)
        (1): CELU(alpha=0.1)
        (2): Linear(in_features=144, out_features=112, bias=True)
        (3): CELU(alpha=0.1)
        (4): Linear(in_features=112, out_features=96, bias=True)
        (5): CELU(alpha=0.1)
        (6): Linear(in_features=96, out_features=1, bias=True)
      )
      (2): Sequential(
        (0): Linear(in_features=384, out_features=128, bias=True)
        (1): CELU(alpha=0.1)
        (2): Linear(in_features=128, out_features=112, bias=True)
        (3): CELU(alpha=0.1)
        (4): Linear(in_features=112, out_features=96, bias=True)
        (5): CELU(alpha=0.1)
        (6): Linear(in_features=96, out_features=1, bias=True)
      )
      (3): Sequential(
        (0): Linear(in_features=384, out_features=128, bias=True)
        (1): CELU(alpha=0.1)
        (2): Linear(in_features=128, out_features=112, bias=True)
        (3): CELU(alpha=0.1)
        (4): Linear(in_features=112, out_features=96, bias=True)
        (5): CELU(alpha=0.1)
        (6): Linear(in_features=96, out_features=1, bias=True)
      )
    )




.. GENERATED FROM PYTHON SOURCE LINES 177-187

Initialize the weights and biases.

.. note::
  Pytorch default initialization for the weights and biases in linear layers
  is Kaiming uniform. See: `TORCH.NN.MODULES.LINEAR`_
  We initialize the weights similarly but from the normal distribution.
  The biases were initialized to zero.

.. _TORCH.NN.MODULES.LINEAR:
  https://pytorch.org/docs/stable/_modules/torch/nn/modules/linear.html#Linear

.. GENERATED FROM PYTHON SOURCE LINES 187-197

.. code-block:: default



    def init_params(m):
        if isinstance(m, torch.nn.Linear):
            torch.nn.init.kaiming_normal_(m.weight, a=1.0)
            torch.nn.init.zeros_(m.bias)


    nn.apply(init_params)





.. rst-class:: sphx-glr-script-out

 .. code-block:: none


    ANIModel(
      (0): Sequential(
        (0): Linear(in_features=384, out_features=160, bias=True)
        (1): CELU(alpha=0.1)
        (2): Linear(in_features=160, out_features=128, bias=True)
        (3): CELU(alpha=0.1)
        (4): Linear(in_features=128, out_features=96, bias=True)
        (5): CELU(alpha=0.1)
        (6): Linear(in_features=96, out_features=1, bias=True)
      )
      (1): Sequential(
        (0): Linear(in_features=384, out_features=144, bias=True)
        (1): CELU(alpha=0.1)
        (2): Linear(in_features=144, out_features=112, bias=True)
        (3): CELU(alpha=0.1)
        (4): Linear(in_features=112, out_features=96, bias=True)
        (5): CELU(alpha=0.1)
        (6): Linear(in_features=96, out_features=1, bias=True)
      )
      (2): Sequential(
        (0): Linear(in_features=384, out_features=128, bias=True)
        (1): CELU(alpha=0.1)
        (2): Linear(in_features=128, out_features=112, bias=True)
        (3): CELU(alpha=0.1)
        (4): Linear(in_features=112, out_features=96, bias=True)
        (5): CELU(alpha=0.1)
        (6): Linear(in_features=96, out_features=1, bias=True)
      )
      (3): Sequential(
        (0): Linear(in_features=384, out_features=128, bias=True)
        (1): CELU(alpha=0.1)
        (2): Linear(in_features=128, out_features=112, bias=True)
        (3): CELU(alpha=0.1)
        (4): Linear(in_features=112, out_features=96, bias=True)
        (5): CELU(alpha=0.1)
        (6): Linear(in_features=96, out_features=1, bias=True)
      )
    )



.. GENERATED FROM PYTHON SOURCE LINES 198-199

Let's now create a pipeline of AEV Computer --> Neural Networks.

.. GENERATED FROM PYTHON SOURCE LINES 199-201

.. code-block:: default

    model = torchani.nn.Sequential(aev_computer, nn).to(device)








.. GENERATED FROM PYTHON SOURCE LINES 202-216

Now let's setup the optimizers. NeuroChem uses Adam with decoupled weight decay
…
