…
size of neural network for all atom types, but this is not necessary.


.. code-block:: default

    def atomic():
        model = torch.nn.Sequential(
            torch.nn.Linear(384, 128),
            torch.nn.CELU(0.1),
            torch.nn.Linear(128, 128),
            torch.nn.CELU(0.1),
            torch.nn.Linear(128, 64),
            torch.nn.CELU(0.1),
            torch.nn.Linear(64, 1)
        )
        return model


    nn = torchani.ANIModel([atomic() for _ in range(4)])
    print(nn)





.. rst-class:: sphx-glr-script-out

 Out:

 .. code-block:: none

    ANIModel(
      (0): Sequential(
        (0): Linear(in_features=384, out_features=128, bias=True)
        (1): CELU(alpha=0.1)
        (2): Linear(in_features=128, out_features=128, bias=True)
        (3): CELU(alpha=0.1)
        (4): Linear(in_features=128, out_features=64, bias=True)
        (5): CELU(alpha=0.1)
        (6): Linear(in_features=64, out_features=1, bias=True)
      )
      (1): Sequential(
        (0): Linear(in_features=384, out_features=128, bias=True)
        (1): CELU(alpha=0.1)
        (2): Linear(in_features=128, out_features=128, bias=True)
        (3): CELU(alpha=0.1)
        (4): Linear(in_features=128, out_features=64, bias=True)
        (5): CELU(alpha=0.1)
        (6): Linear(in_features=64, out_features=1, bias=True)
      )
      (2): Sequential(
        (0): Linear(in_features=384, out_features=128, bias=True)
        (1): CELU(alpha=0.1)
        (2): Linear(in_features=128, out_features=128, bias=True)
        (3): CELU(alpha=0.1)
        (4): Linear(in_features=128, out_features=64, bias=True)
        (5): CELU(alpha=0.1)
        (6): Linear(in_features=64, out_features=1, bias=True)
      )
      (3): Sequential(
        (0): Linear(in_features=384, out_features=128, bias=True)
        (1): CELU(alpha=0.1)
        (2): Linear(in_features=128, out_features=128, bias=True)
        (3): CELU(alpha=0.1)
        (4): Linear(in_features=128, out_features=64, bias=True)
        (5): CELU(alpha=0.1)
        (6): Linear(in_features=64, out_features=1, bias=True)
      )
    )


If checkpoint from previous training exists, then load it.


.. code-block:: default

    if os.path.isfile(model_checkpoint):
        nn.load_state_dict(torch.load(model_checkpoint))
    else:
        torch.save(nn.state_dict(), model_checkpoint)







Let's now create a pipeline of AEV Computer --> Neural Networks.


.. code-block:: default
…
